…
     "height": 0
    },
    "colab_type": "code",
    "id": "I5oTH710sJEt",
    "outputId": "b07f2169-b26e-48f4-87e1-7ff6f8121715"
   },
   "outputs": [
    {
     "name": "stdout",
     "output_type": "stream",
     "text": [
      "\n",
      "CIFAR CNN SUMMARY\n",
      "==========================================================================================\n",
      "Layer (type:depth-idx)                   Output Shape              Param #\n",
      "==========================================================================================\n",
      "Conv2d: 1-1                            [-1, 32, 28, 28]          832\n",
      "MaxPool2d: 1-2                         [-1, 32, 14, 14]          --\n",
      "BatchNorm2d: 1-3                       [-1, 32, 14, 14]          64\n",
      "Conv2d: 1-4                            [-1, 64, 14, 14]          51,264\n",
      "MaxPool2d: 1-5                         [-1, 64, 7, 7]            --\n",
      "BatchNorm2d: 1-6                       [-1, 64, 7, 7]            128\n",
      "Linear: 1-7                            [-1, 512]                 1,606,144\n",
      "Linear: 1-8                            [-1, 10]                  5,130\n",
      "==========================================================================================\n",
      "Total params: 1,663,562\n",
      "Trainable params: 1,663,562\n",
      "Non-trainable params: 0\n",
      "Total mult-adds (M): 12.27\n",
      "==========================================================================================\n",
      "Input size (MB): 0.00\n",
      "Forward/backward pass size (MB): 0.36\n",
…
      "Forward/backward pass size (MB): 0.36\n",
      "Params size (MB): 6.35\n",
      "Estimated Total Size (MB): 6.71\n",
      "==========================================================================================\n",
      "\n",
      "MNIST CNN SUMMARY\n",
      "==========================================================================================\n",
      "Layer (type:depth-idx)                   Output Shape              Param #\n",
      "==========================================================================================\n",
      "Conv2d: 1-1                            [-1, 8, 28, 28]           208\n",
      "MaxPool2d: 1-2                         [-1, 8, 14, 14]           --\n",
      "Conv2d: 1-3                            [-1, 16, 14, 14]          3,216\n",
      "MaxPool2d: 1-4                         [-1, 16, 7, 7]            --\n",
      "Dropout: 1-5                           [-1, 16, 7, 7]            --\n",
      "Linear: 1-6                            [-1, 32]                  25,120\n",
      "Linear: 1-7                            [-1, 10]                  330\n",
      "==========================================================================================\n",
      "Total params: 28,874\n",
      "Trainable params: 28,874\n",
      "Non-trainable params: 0\n",
      "Total mult-adds (M): 0.81\n",
      "==========================================================================================\n",
      "Input size (MB): 0.00\n",
      "Forward/backward pass size (MB): 0.07\n",
…
      "Forward/backward pass size (MB): 0.07\n",
      "Params size (MB): 0.11\n",
      "Estimated Total Size (MB): 0.19\n",
      "==========================================================================================\n",
      "\n",
      "MNIST CNN S SUMMARY\n",
      "==========================================================================================\n",
      "Layer (type:depth-idx)                   Output Shape              Param #\n",
      "==========================================================================================\n",
      "Conv2d: 1-1                            [-1, 32, 24, 24]          832\n",
      "MaxPool2d: 1-2                         [-1, 32, 12, 12]          --\n",
      "Conv2d: 1-3                            [-1, 64, 8, 8]            51,264\n",
      "MaxPool2d: 1-4                         [-1, 64, 4, 4]            --\n",
      "Linear: 1-5                            [-1, 512]                 524,800\n",
      "Dropout: 1-6                           [-1, 512]                 --\n",
      "Linear: 1-7                            [-1, 10]                  5,130\n",
      "==========================================================================================\n",
      "Total params: 582,026\n",
      "Trainable params: 582,026\n",
      "Non-trainable params: 0\n",
      "Total mult-adds (M): 4.27\n",
      "==========================================================================================\n",
      "Input size (MB): 0.00\n",
      "Forward/backward pass size (MB): 0.18\n",
…
